model_data/my_tft_model/model.pt (torch, 375932 bytes, 217 tensors)

mask f4 [7]
-0.19668247 0.048008636 -0.059121575 -0.1647501 -0.066261135 -0.03880469 0.43535975
00000000: 2167 49be b4a4 443d 7729 72bd 40b4 28be
00000010: ebb3 87bd abf1 1ebd 79e7 de3e

weight f4 [7]
1.1215358 1.2126561 0.96736306 0.8962528 1.4423672 1.1867819 1.3156188
00000000: 7c8e 8f3f 5138 9b3f 1ba5 773f d370 653f
00000010: 7d9f b83f 78e8 973f 3266 a83f

bias f4 [7]
0.210196 -0.2769646 -0.04060708 -0.10998381 0.10414854 0.049248576 -0.19685227
00000000: 9f3d 573e 4ece 8dbe 9c53 26bd 313f e1bd
00000010: d44b d53d e0b8 493d a493 49be

weight f4 [6, 56]
0.18122837 0.10354401 -0.3041877 -0.022279387 -0.39905342 -0.22398934 -0.23779228 -0.29695386
-0.43834177 -0.13435423 -0.32764205 -0.07094435 0.10567658 -0.019236501 -0.15347427 0.13591486
-0.13203336 -0.08360118 -0.25300947 0.17836574 0.057524893 0.065132365 -0.02404862 -0.0089171985
-0.026680881 -0.13146408 0.032817 0.0786032 -0.078868866 0.24664415 -0.28313038 -0.16979344
0.21857257 -0.073704645 -0.17453377 0.12854062 -0.023246786 0.043820664 -0.18732886 -0.01835907
-0.082021154 -0.27653092 0.18760575 -0.33866826 -0.06813294 -0.20374927 0.0281134 0.22548668
-0.38514146 0.15399285 -0.33229107 -0.14416909 -0.447337 -0.1933047 0.14491205 -0.19933641
-0.012515736 -0.4350747 -0.08089266 0.60733414 -0.27115783 0.36597008 -0.147315 0.020301763
0.2442279 0.09293615 0.14901638 0.23745821 0.077396944 -0.18587998 0.15656637 -0.0330276
0.046148144 0.088091634 0.022830239 -0.39300713 -0.19071202 -0.2345653 -0.2168986 -0.117468454
-0.08839018 0.17758004 -0.04977641 0.0985333 -0.14210486 -0.09533377 0.1889425 -0.46605024
-0.04841763 0.18779726 -0.24225052 0.05642771 -0.1051552 -0.1663169 -0.032926574 -0.22291964
0.1829998 -0.11086877 -0.03748807 -0.052446578 -0.016997606 -0.33228987 0.1365852 -0.30519894
-0.14384434 0.121673614 0.016425034 0.08911063 -0.031826004 0.058565713 -0.005187234 -0.20778032
-0.10720976 -0.13037887 0.06355471 -0.21711004 0.59799266 0.31830615 0.30443558 0.432696
0.32786387 0.31476417 -0.32490143 0.16145128 -0.060232867 -0.18149677 0.13915321 0.24011965
0.2702754 0.3569071 0.035494756 -0.046785768 -0.12507729 0.07470134 0.18427512 -0.028488459
0.10965366 0.38032898 -0.233161 0.017691514 -0.20885585 -0.31310034 0.1260175 0.36465257
-0.0969766 0.1781684 0.046988387 -0.18333574 0.071794674 0.11304346 0.09241213 0.04005373
-0.030502796 -0.005272235 0.20754178 0.010496934 -0.5390511 0.18092193 -0.08365229 -0.17250702
0.46994767 0.21281774 -0.5709843 -0.22135332 0.21550944 0.06789209 0.14926836 0.047635373
-0.11555949 -0.0024815155 -0.1347689 0.28488025 -0.38705015 -0.33682427 -0.16057292 -0.4216651
-0.062048066 -0.10602715 0.18801121 -0.23757832 -0.025007285 -0.19411731 -0.008156066 0.10910289
0.03349307 0.0371623 0.12000221 0.0138736 -0.31714666 -0.14592436 0.27581066 0.34528887
-0.26565817 0.28121826 -0.04760372 -0.17835812 -0.091845825 0.03549181 0.17391543 -0.074135944
-0.07588063 -0.3464485 0.1252677 -0.22851034 0.076552406 -0.09693702 -0.33559003 0.04289251
-0.016967464 0.36487976 -0.028861992 -0.0035530888 -0.0792644 0.13315894 -0.1250488 -0.10261521
0.44143206 0.10493309 -0.7907409 -0.033774182 -0.06725401 0.06863733 -0.15245058 0.29713088
-0.050022684 -0.13763632 -0.30890027 -0.31707868 0.70776117 0.67024595 0.18132009 0.2487856
0.35009152 -0.20676261 0.060013335 -0.22404562 0.5498987 -0.01998416 0.04151713 0.27184573
-0.08123054 -0.18100046 -0.13632035 0.3465361 -0.002798606 -0.37623966 0.22281934 -0.17327584
-0.20036699 0.4069673 0.18290183 -0.054336634 -0.102776185 -0.230469 -0.24836808 0.044534422
00000000: ee93 393e e20e d43d 7dbe 9bbe 4383 b6bc
00000010: bb50 ccbe 765d 65be d27f 73be 560a 98be
00000020: 556e e0be 2894 09be b3c0 a7be 454b 91bd
00000030: f66c d83d de95 9dbc 5c28 1dbe 442d 0b3e
00000040: c133 07be 1837 abbd 758a 81be 82a5 363e
00000050: 399f 6b3d 1e64 853d 9d01 c5bc 7119 12bc
00000060: dd91 dabc 859e 06be 1e6b 063d b7fa a03d
00000070: 0086 a1bd 4990 7c3e 77f6 90be 55de 2dbe
00000080: 7dd1 5f3e 76f2 96bd fbb8 32be 27a0 033e
00000090: 0b70 bebc 4c7d 333d 23d3 3fbe c365 96bc
000000a0: b5fa a7bd 7695 8dbe b91b 403e ed65 adbe
000000b0: 4889 8bbd a6a3 50be 134e e63c fbe5 663e
000000c0: 4331 c5be 4db0 1d3e 0e22 aabe 10a1 13be
000000d0: 5b09 e5be abf1 45be d363 143e d81e 4cbe
000000e0: cd0e 4dbc 1cc2 debe 0dab a5bd 407a 1b3f
000000f0: 33d5 8abe 6e60 bb3e bed9 16be e24f a63c
00000100: e116 7a3e 4f55 be3d c097 183e 3f28 733e
00000110: 4a82 9e3d 5257 3ebe ef52 203e f347 07bd
00000120: d605 3d3d 6369 b43d 7b06 bb3c 3b38 c9be
00000130: 034a 43be e331 70be ab1a 5ebe 4d93 f0bd
00000140: e905 b5bd 8bd7 353e 59e2 4bbd d4cb c93d
00000150: f083 11be 5a3e c3bd 257a 413e 239e eebe
00000160: 9151 46bd ed4d 403e 8510 78be be20 673d
00000170: 9c5b d7bd fa4e 2abe 04de 06bd 0c45 64be
00000180: 4d64 3b3e 2a0f e3bd 178d 19bd 39d2 56bd
00000190: 903e 8bbc e621 aabe fedc 0b3e 0943 9cbe
000001a0: ee4b 13be 0430 f93d cb8d 863c a27f b63d
000001b0: fc5b 02bd 9ae2 6f3d acf9 a9bb 5dc4 54be
000001c0: ca90 dbbd 0a82 05be f928 823d 1852 5ebe
000001d0: 0c16 193f 06f9 a23e fbde 9b3e 558a dd3e
000001e0: c6dd a73e c528 a13e 7b59 a6be 7c53 253e
000001f0: bdb6 76bd 4ada 39be 2e7e 0e3e ede1 753e
00000200: 8a61 8a3e 87bc b63e f362 113d 6fa2 3fbd
00000210: 4314 00be 04fd 983d 9eb2 3c3e a160 e9bc
00000220: 1992 e03d 7bba c23e c2c1 6ebe cbed 903c
00000230: 4fde 55be b04e a0be bb0a 013e beb3 ba3e
00000240: ab9b c6bd c771 363e e576 403d 5dbc 3bbe
00000250: 1609 933d 5483 e73d 9242 bd3d 610f 243d
00000260: 00e1 f9bc b6c2 acbb d585 543e 55fb 2b3c
00000270: 41ff 09bf 9943 393e e451 abbd aea5 30be
00000280: fb9c f03e e5ec 593e 072c 12bf 72aa 62be
00000290: 82ae 5c3e 020b 8b3d ced9 183e 4f1d 433d
000002a0: 74aa ecbd eca0 22bb dc00 0abe d3db 913e
000002b0: 702b c6be 3b74 acbe 3a6d 24be 7de4 d7be
000002c0: 1d26 7ebd c324 d9bd 0386 403e bb47 73be
000002d0: 14dc ccbc b0c6 46be 05a1 05bc 5671 df3d
000002e0: 0830 093d 7f37 183d b8c3 f53d 194e 633c
000002f0: 0c61 a2be 326d 15be 0e37 8d3e b4c9 b03e
00000300: 5904 88be d7fb 8f3e 1efc 42bd 83a3 36be
00000310: aa19 bcbd dc5f 113d e316 323e 96d4 97bd
00000320: 4e67 9bbd b361 b1be 2d46 003e 9dfe 69be
00000330: 82c7 9c3d eb86 c6bd 75d2 abbe 0eb0 2f3d
00000340: 5aff 8abc 85d1 ba3e fc6f ecbc f0da 68bb
00000350: 6055 a2bd d15a 083e cb0c 00be ec27 d2bd
00000360: 6203 e23e 29e7 d63d ff6d 4abf cc56 0abd
00000370: 78bc 89bd ba91 8c3d 011c 1cbe 8a21 983e
00000380: 96e4 4cbd 89f0 0cbe 2d28 9ebe 2358 a2be
00000390: d62f 353f 3d95 2b3f f9ab 393e a7c1 7e3e
000003a0: 323f b33e 94b9 53be 8bd0 753d 376c 65be
000003b0: 29c6 0c3f d2b5 a3bc de0d 2a3d 5d2f 8b3e
000003c0: 335c a6bd 2f58 39be 9097 0bbe 2e6d b13e
000003d0: d168 37bb 7ca2 c0be c12a 643e 396f 31be
000003e0: 012d 4dbe 055e d03e 9e4a 3b3e 1790 5ebd
000003f0: 527c d2bd 1100 6cbe 3454 7ebe ba69 363d

bias f4 [6]
0.0033898687 -0.033370484 0.027341938 0.06437414 0.009250025 0.0009779099
00000000: 8f28 5e3b 7daf 08bd 33fc df3c 97d6 833d
00000010: 6b8d 173c 362d 803a

weight f4 [6, 6]
0.33201954 -0.04973036 0.42477292 0.0457295 -0.07870329 -0.37936506 0.25104722 -0.42048198
-0.4225635 0.7010457 0.16898194 -0.28512388 0.36486557 0.030499319 0.51898485 0.22789766
0.15945676 0.11558778 -0.5032721 0.3191577 -0.30566 -0.11174315 -0.43767723 0.048140638
0.560473 0.5691834 -0.5431407 -0.28697807 0.098750204 0.62929153 0.19476427 0.63913417
-0.49101117 0.005151 0.1553872 0.56916237
00000000: 77fe a93e 10b2 4bbd d67b d93e db4e 3b3d
00000010: 312f a1bd 233c c2be 4389 803e 6a49 d7be
00000020: 3e5a d8be bb77 333f 9a09 2d3e c2fb 91be
00000030: a9cf ba3e b5d9 f93c 31dc 043f 015e 693e
00000040: a248 233e 49b9 ec3d 71d6 00bf a368 a33e
00000050: 787f 9cbe 98d9 e4bd 3b17 e0be 1e2f 453d
00000060: 297b 0f3f 01b6 113f 450b 0bbf caee 92be
00000070: 8c3d ca3d 4019 213f 4970 473e 4c9e 233f
00000080: d165 fbbe b8c9 a83b d21d 1f3e a0b4 113f

weight f4 [6, 6]
-0.09870778 -0.10109331 0.8269847 -0.20169948 0.24018383 -0.8426523 0.7692665 0.809817
-0.26960483 0.030066168 0.091397025 1.0343299 0.020511722 0.06423665 -0.23992117 -0.23463424
0.40907517 0.08277851 -0.7794936 0.41911766 0.28208345 0.17984724 0.049574662 0.12535168
0.47340882 -0.5083839 -0.10790574 0.14892045 -0.9516583 0.076361224 0.32551092 -0.7240128
-0.3069817 -0.26679093 -0.73282397 0.4858096
00000000: 4e27 cabd 020a cfbd 45b5 533f 4f8a 4ebe
00000010: c0f2 753e 10b8 57bf a6ee 443f 2b50 4f3f
00000020: a509 8abe 534d f63c 5d2e bb3d ec64 843f
00000030: 3308 a83c 818e 833d e5ad 75be f543 70be
00000040: 4d72 d13e c887 a93d e48c 47bf 9796 d63e
00000050: 3e6d 903e e029 383e cd0e 4b3d 315c 003e
00000060: a462 f23e 7325 02bf affd dcbd 9a7e 183e
00000070: e19f 73bf 4663 9c3d 5ea9 a63e e758 39bf
00000080: b52c 9dbe d298 88be 5a9a 3bbf 09bc f83e

bias f4 [6]
-0.0066757016 0.008553254 -0.058247108 0.0485739 -0.04047792 0.04257494
00000000: d8bf dabb f322 0c3c 8594 6ebd 6df5 463d
00000010: 2dcc 25bd 0f63 2e3d

weight f4 [14, 6]
0.21889505 0.40234625 0.4698282 -0.060770802 -0.23815744 0.09212274 0.43619233 -0.67576617
-0.11735538 -0.06184602 -0.12007216 0.054693986 0.35052717 -0.054606844 0.023759115 -0.09529455
-0.4071921 -0.3719109 0.4010989 0.27963877 0.40757143 0.51207787 -0.20278913 -0.19581765
-0.2573326 0.20880367 -0.5215732 0.0732574 0.09431794 0.38989818 -0.566276 -0.37885848
0.30744797 -0.47660857 -0.36528412 0.3903309 -0.032018434 -0.11497493 -0.38114035 0.09276816
0.33996093 0.112723015 -0.04580721 -0.32852796 0.33933035 -0.16121775 0.446018 -0.27762666
0.18642081 -0.20094666 -0.1547843 0.4583094 -0.4307676 0.12355505 0.15505712 0.010165491
0.19987799 0.33451205 -0.070984304 -0.36624664 0.093020864 -0.60112345 -0.38440368 -0.48713037
0.39506188 0.12152458 -0.30104378 -0.48504686 0.44738683 -0.122503296 0.3957737 0.21173309
-0.51159793 -0.006999525 0.101245016 0.18033534 0.09217528 0.60894006 -0.62373984 -0.40006796
-0.5613516 0.59107757 0.5617458 0.04340677
00000000: 0626 603e 5400 ce3e 528d f03e ceea 78bd
00000010: 8bdf 73be d9aa bc3d 9a54 df3e 03ff 2cbf
00000020: 0458 f0bd 4152 7dbd 65e8 f5bd cd06 603d
00000030: 4c78 b33e 6dab 5fbd 7aa2 c23c ca29 c3bd
00000040: 7c7b d0be 1b6b bebe d65c cd3e d02c 8f3e
00000050: 34ad d03e 8917 033f f4a7 4fbe 6c84 48be
00000060: 19c1 83be a1d0 553e d285 05bf fa07 963d
00000070: c429 c13d bca0 c73e 77f7 10bf bdf9 c1be
00000080: d269 9d3e 0a06 f4be 8506 bbbe 74d9 c73e
00000090: c325 03bd fa77 ebbd d424 c3be 3cfd bd3d
000000a0: 5c0f ae3e 53db e63d 57a0 3bbd d134 a8be
000000b0: b5bc ad3e 4416 25be 795c e43e 1525 8ebe
000000c0: 19e5 3e3e f6c4 4dbe c77f 1ebe 88a7 ea3e
000000d0: 928d dcbe 6e0a fd3d 4bc7 1e3e 298d 263c
000000e0: d1ac 4c3e 2a45 ab3e 3860 91bd ae84 bbbe
000000f0: b981 be3d 3ae3 19bf 8fd0 c4be 2769 f9be
00000100: 8d45 ca3e e1e1 f83d 6922 9abe 1058 f8be
00000110: e30f e53e 02e3 fabd daa2 ca3e 8fd0 583e
00000120: 15f8 02bf 455c e5bb 8c59 cf3d d4a9 383e
00000130: 65c6 bc3d 7fe3 1b3f 6aad 1fbf b5d5 ccbe
00000140: bdb4 0fbf dc50 173f 93ce 0f3f 4ccb 313d

bias f4 [14]
0.18913434 -0.33460447 -0.04964353 -0.07687257 0.13260865 0.08309129 -0.24017005 -0.011865388
0.07860568 0.015665615 -0.10446857 -0.18989359 -0.008858548 -0.009412164
00000000: 6fac 413e 4751 abbe 0457 4bbd 5e6f 9dbd
00000010: 90ca 073e c42b aa3d 23ef 75be 0b67 42bc
00000020: 04fc a03d 2d55 803c 9ef3 d5bd 7773 42be
00000030: 7123 11bc 7a35 1abc

weight f4 [7]
1.0289415 1.1276367 0.9635285 0.8812239 1.1869189 1.2805407 1.0463394
00000000: 5bb4 833f 6656 903f cea9 763f e497 613f
00000010: f5ec 973f c2e8 a33f 73ee 853f

bias f4 [7]
0.22622603 -0.19569327 -0.039955072 -0.12628639 0.06611379 0.02754678 -0.021344252
00000000: cca7 673e d163 48be eea7 23bd 3851 01be
00000010: ab66 873d c9a9 e13c 24da aebc

mask f4 [6]
-0.063158646 -0.23781711 0.39192176 -0.5623045 0.51530755 -0.41169634
00000000: 5259 81bd 5486 73be f8a9 c83e 30f3 0fbf
00000010: 32eb 033f ddc9 d2be

weight f4 [6]
0.8946224 0.7831003 1.4331623 0.31229806 1.2818035 0.69803274
00000000: f905 653f 4379 483f dd71 b73f 88e5 9f3e
00000010: 2312 a43f 46b2 323f

bias f4 [6]
0.09557753 -0.23322506 -0.21363631 0.2444019 0.0010508924 -0.3702125
00000000: 27be c33d 8dd2 6ebe 7ac3 5abe 7e44 7a3e
00000010: 19be 893a 7e8c bdbe

weight f4 [6, 8]
-0.80133057 -0.6034837 -0.8244778 0.3008709 0.30104977 1.3106265 0.93112606 0.13906252
0.6444838 -0.40391997 -1.2402786 -0.24352975 1.7525353 0.26169938 -0.75340074 -0.43172655
0.06487082 0.7037249 0.037607495 0.6288982 -0.9242192 -1.0854396 -0.7687663 -0.38865507
-0.39912498 0.70285517 -0.96782315 -0.7669368 0.86395 -0.49462983 -0.38713077 0.64341974
0.6531536 -0.2964368 -0.16758922 -0.14173031 -0.49425542 0.69519967 0.015842903 0.7828344
-0.3508261 -0.4042558 -0.79548705 -0.81238276 1.1099039 -0.26949602 -0.39589027 0.34969166
00000000: 0024 4dbf e87d 1abf fa10 53bf c00b 9a3e
00000010: 3223 9a3e 9cc2 a73f 475e 6e3f 6866 0e3e
00000020: e4fc 243f 99ce cebe 73c1 9ebf dd5f 79be
00000030: 1453 e03f 76fd 853e dfde 40bf 430b ddbe
00000040: feda 843d 5127 343f 510a 1a3d 79ff 203f
00000050: a199 6cbf afef 8abf decd 44bf ccfd c6be
00000060: 1c5a ccbe 51ee 333f 42c3 77bf f855 44bf
00000070: d42b 5d3f 1f40 fdbe 0136 c6be 28b7 243f
00000080: 1335 273f 90c6 97be 829c 2bbe c021 11be
00000090: 0c0f fdbe 9bf8 313f fac8 813c d667 483f
000000a0: 7b9f b3be 9efa cebe 0aa5 4bbf 51f8 4fbf
000000b0: 5511 8e3f 62fb 89be 21b2 cabe c90a b33e

bias f4 [6]
-0.16990869 -0.09927855 -0.015675774 0.039320238 -0.12029546 0.12674722
00000000: 8bfc 2dbe 8d52 cbbd 7b6a 80bc 420e 213d
00000010: 775d f6bd 06ca 013e

weight f4 [6, 6]
-0.2815643 0.0023471792 -1.1621517 0.64127433 0.2516421 0.84232426 0.07400217 -0.10825324
0.2518471 0.5140638 -1.075355 -0.7951475 -1.055277 0.24542114 0.29452643 -0.2520808
0.25473818 -0.44132408 1.5437355 0.8118526 -0.5222842 0.5315239 0.053611595 0.5511288
-0.05270474 0.2233006 1.2246872 -1.0280033 -0.28342304 -0.598798 0.47431308 0.45291302
0.06038969 -0.28729787 0.86346054 -1.202939
00000000: 3229 90be 22d3 193b 63c1 94bf 8e2a 243f
00000010: 3cd7 803e 90a2 573f 738e 973d e0b3 ddbd
00000020: 1af2 803e af99 033f 3ca5 89bf c98e 4bbf
00000030: 5113 87bf ae4f 7b3e 2bcc 963e bc10 81be
00000040: 0b6d 823e 3bf5 e1be 2099 c53f 92d5 4f3f
00000050: 6bb4 05bf f311 083f d597 5b3d c716 0d3f
00000060: ede0 57bd eaa8 643e 8dc2 9c3f 9d95 83bf
00000070: d31c 91be d34a 19bf 2ad9 f23e 37e4 e73e
00000080: 2e5b 773d b518 93be c00b 5d3f e8f9 99bf

bias f4 [6]
0.09783821 0.108447626 0.14917925 -0.14006531 -0.060721196 -0.16704352
00000000: 665f c83d ca19 de3d 72c2 183e 486d 0fbe
00000010: cab6 78bd 750d 2bbe

weight f4 [12, 6]
0.63300216 -0.07310006 0.27463138 0.33722758 -0.44345155 -0.764342 -0.43203485 -0.1697417
-0.1466229 0.22138517 0.51216483 0.5477582 0.24786112 -0.3281061 0.67568105 0.56095606
-0.23680393 0.31596875 0.59990793 0.19980338 -0.3922941 0.16925222 -0.66638565 -0.26742065
0.41449085 -0.109430805 -0.4675833 0.5857006 -0.42752486 -0.18314919 0.054188892 -0.1843772
0.3584429 0.31551474 -0.4128585 0.36881778 0.36164492 0.87593323 -0.16476187 -0.770847
0.14753178 -0.50591606 0.10909066 0.53543675 -0.35099784 -1.219697 0.23780221 -0.34408152
-0.22661862 -0.7366924 -0.61083394 0.30453593 -0.018490417 -0.36777645 -0.04885045 0.6698206
0.32856962 -0.36485055 -0.4221429 0.35311645 0.24534132 -0.5809977 -0.32016084 -0.475239
-0.27199754 -0.026446214 -0.66580784 -0.114720136 0.5902382 -0.51645243 -0.4307347 0.1450468
00000000: 6e0c 223f 7cb5 95bd 7c9c 8c3e 18a9 ac3e
00000010: 150c e3be ebab 43bf ac33 ddbe c5d0 2dbe
00000020: 5024 16be cbb2 623e 3c1d 033f e239 0c3f
00000030: 4ecf 7d3e 86fd a7be 6ff9 2c3f d19a 0f3f
00000040: bb7c 72be a8c6 a13e 9193 193f 4299 4c3e
00000050: c6da c8be 7450 2d3e 4098 2abf 5ceb 88be
00000060: 2538 d43e 421d e0bd 1467 efbe 79f0 153f
00000070: 8ae4 dabe 768b 3bbe 2cf5 5d3d 60cd 3cbe
00000080: d485 b73e 268b a13e 3062 d3be afd5 bc3e
00000090: 8629 b93e 293d 603f 56b7 28be 3b56 45bf
000000a0: 9212 173e b783 01bf ed6a df3d 6212 093f
000000b0: fdb5 b3be 081f 9cbf 6c82 733e 742b b0be
000000c0: b60e 68be e097 3cbf 9d5f 1cbf 22ec 9b3e
000000d0: 3779 97bc 324d bcbe 6917 48bd 5d79 2b3f
000000e0: 473a a83e b1cd babe 1d23 d8be aecb b43e
000000f0: c13a 7b3e 44bc 14bf 1fec a3be 8752 f3be
00000100: 4343 8bbe bba5 d8bc 6272 2abf 64f2 eabd
00000110: da19 173f 3a36 04bf 4289 dcbe 2687 143e

bias f4 [12]
0.10398965 -0.2834045 -0.19993058 0.29746318 0.012577831 -0.22549057 0.60985535 0.3145815
-0.16321138 0.3095456 -0.025270004 -0.19158065
00000000: 87f8 d43d 651a 91be 9aba 4cbe 184d 983e
00000010: 3f13 4e3c 00e7 66be 7b1f 1c3f d410 a13e
00000020: e220 27be c37c 9e3e 0a03 cfbc b82d 44be

weight f4 [6]
1.1255774 1.0030869 1.0867121 1.2979512 2.1579716 1.2991592
00000000: ec12 903f 2765 803f 6219 8b3f 4423 a63f
00000010: 351c 0a40 d94a a63f

bias f4 [6]
-0.02947805 0.0022730753 -0.07042045 0.0024143017 0.083926395 -0.18678865
00000000: f47b f1bc e0f7 143b 9938 90bd 4339 1e3b
00000010: 9ae1 ab3d 8645 3fbe

mask f4 [6]
0.034365468 0.03328592 0.10942656 -0.018780181 -0.056353528 -0.008729276
00000000: cec2 0c3d d156 083d 081b e03d e5d8 99bc
00000010: f5d2 66bd 3d05 0fbc

weight f4 [6]
1.0383793 1.041279 1.2271924 1.0205941 0.95687455 0.9982818
00000000: 9de9 843f a148 853f a414 9d3f d4a2 823f
00000010: bbf5 743f 658f 7f3f

bias f4 [6]
-0.032657992 -0.047699407 -0.07369596 0.020756476 0.054715294 0.0001761046
00000000: 63c4 05bd 7460 43bd e8ed 96bd 7c09 aa3c
00000010: 251d 603d b8a8 3839

weight f4 [6, 8]
-0.41382742 0.030782567 -0.7513663 -0.16372752 -0.008519548 -0.15334217 -0.34150353 0.15571119
-0.29804984 0.959784 -1.0162237 0.29444283 0.14715402 -0.35510212 -0.65428156 0.87841666
0.45936608 -0.6574499 -0.13049072 0.5858108 0.20327275 0.0072689103 -0.025927061 0.21393354
0.37519437 0.0755543 -0.3238423 0.31973487 0.33533424 0.43860838 0.29231873 -0.5534791
0.17432417 -0.4243243 0.3092588 -0.13620912 0.47424504 -0.07342202 -0.8571407 -0.03481503
0.25284308 -0.6953243 0.4358016 0.2330409 -0.95895797 -0.7497132 -0.2558665 -0.023558052
00000000: 30e1 d3be b92b fc3c 8b59 40bf 30a8 27be
00000010: 9395 0bbc bb05 1dbe 8dd9 aebe c172 1f3e
00000020: fd99 98be 67b4 753f 9e13 82bf 36c1 963e
00000030: 8baf 163e f2cf b5be ff7e 27bf eadf 603f
00000040: 0832 eb3e a34e 28bf 5c9f 05be b2f7 153f
00000050: bb26 503e 0a30 ee3b fd64 d4bc 6511 5b3e
00000060: 7a19 c03e 36bc 9a3d a8ce a5be 4ab4 a33e
00000070: eeb0 ab3e 4791 e03e cdaa 953e ceb0 0dbf
00000080: 0982 323e 0941 d9be 2b57 9e3e 677a 0bbe
00000090: 3fd0 f23e 495e 96bd 936d 5bbf 349a 0ebd
000000a0: a674 813e c600 32bf 6321 df3e 46a2 6e3e
000000b0: 457e 75bf 34ed 3fbf ef00 83be d1fc c0bc

bias f4 [6]
0.011330686 0.10775003 -0.015770862 0.02671446 0.044635374 0.0064598555
00000000: 57a4 393c 0cac dc3d e531 81bc 49d8 da3c
00000010: 95d3 363d 32ad d33b

weight f4 [6, 6]
-0.8851511 0.401862 0.274796 -0.5748079 0.34262636 -0.5503886 -0.41790083 -0.2898975
-0.686382 -0.021841496 0.05139749 0.008745271 0.11968738 1.046742 -0.2666496 -0.17099708
0.43966705 -0.6360612 -0.6271606 -0.4270684 0.49343634 0.32266325 0.08973892 -0.4731343
0.32170987 -0.08744354 -0.8217276 0.68267334 0.51951957 0.8833275 -0.9150668 0.09976728
-1.0981487 0.07793133 1.0000265 0.44243392
00000000: 4399 62bf dbc0 cd3e 10b2 8c3e 9c26 13bf
00000010: b96c af3e 44e6 0cbf 19f7 d5be 726d 94be
00000020: bbb6 2fbf f0ec b2bc 2d86 523d 5348 0f3c
00000030: a81e f53d a4fb 853f 4c86 88be dc19 2fbe
00000040: 0a1c e13e e8d4 22bf 998d 20bf b6a8 dabe
00000050: b0a3 fc3e 1e34 a53e 0ac9 b73d a93e f2be
00000060: 28b7 a43e 9915 b3bd bd5c 52bf aec3 2e3f
00000070: 3cff 043f c021 623f d141 6abf ca52 cc3d
00000080: 2390 8cbf 769a 9f3d de00 803f b386 e23e

bias f4 [6]
-0.15135583 -0.12567209 0.07054132 -0.017134482 0.003249871 0.035115723
00000000: 06fd 1abe 2fb0 00be f877 903d 9d5d 8cbc
00000010: cafb 543b 81d5 0f3d

weight f4 [12, 6]
-0.22353427 -0.2747052 -0.45084223 0.35218588 -0.57499754 0.22113174 -0.3119608 0.25613135
-0.100284815 0.008551076 0.38842562 -0.27691674 -0.41706973 0.47902167 -0.5280232 0.23639509
-0.5013231 -0.124134846 0.24073341 0.038449023 0.2929339 -0.22006251 -0.03604637 0.45747322
-0.40951863 -0.3311064 0.31357723 -0.48468766 0.43909147 0.32858944 0.1689414 0.36646414
-0.30150783 -0.5271386 0.13511671 -0.39391562 0.6711068 -0.14420377 0.3511514 -0.24267405
-0.283394 -0.22849037 -0.36379242 0.5789305 -0.44608897 -0.40257648 0.19555531 -0.2782214
-0.27936798 -0.23648144 0.15924788 -0.36826083 0.15759979 0.5071301 -0.20788313 0.43775323
0.003634783 0.42687473 -0.40422606 -0.215769 0.26273873 0.26647443 0.39822263 0.5299633
-0.035515167 0.004883422 0.5455734 0.12045583 0.1952821 0.6198305 -0.3199639 0.0222257
00000000: 2be6 64be 29a6 8cbe cbd4 e6be b551 b43e
00000010: 0a33 13bf 5c70 623e 53b9 9fbe a623 833e
00000020: 2062 cdbd d019 0c3c b9df c63e 08c8 8dbe
00000030: 2a8a d5be 5442 f53e 872c 07bf 8e11 723e
00000040: b656 00bf 693a febd d282 763e b97c 1d3d
00000050: 6ffb 953e 1158 61be 5ca5 13bd ee39 ea3e
00000060: 6dac d1be c786 a9be 328d a03e fb28 f8be
00000070: 99d0 e03e e03c a83e f9fe 2c3e 30a1 bb3e
00000080: 3c5f 9abe 8ef2 06bf 095c 0a3e 4faf c9be
00000090: a8cd 2b3f 27aa 13be 1eca b33e 8c7f 78be
000000a0: 0519 91be 61f9 69be 0043 babe ca34 143f
000000b0: c665 e4be 811e cebe a73f 483e 0973 8ebe
000000c0: 5209 8fbe 3128 72be e011 233e af8c bcbe
000000d0: d761 213e 47d3 013f 51df 54be 3121 e03e
000000e0: 8a35 6e3b 538f da3e b8f6 cebe 8cf2 5cbe
000000f0: b185 863e 566f 883e d6e3 cb3e adab 073f
00000100: 5a78 11bd 1d05 a03b b3aa 0b3f 8cb1 f63d
00000110: 08f8 473e 36ad 1e3f 4fd2 a3be ac12 b63c

bias f4 [12]
-0.03204136 -0.046946328 -0.06579867 0.004125871 0.056783598 0.008563938 0.004883925 -0.058922
0.08997349 -0.009256727 0.012581283 -0.120225765
00000000: cd3d 03bd cb4a 40bd 74c1 86bd 5132 873b
00000010: eb95 683d c24f 0c3c 5509 a03b 3258 71bd
00000020: 0544 b83d 87a9 17bc ba21 4e3c ed38 f6bd

weight f4 [6]
0.9843708 0.95362824 1.0105196 0.99429697 0.9170846 0.9215822
00000000: baff 7b3f fb20 743f b558 813f 3f8a 7e3f
00000010: 0ec6 6a3f d0ec 6b3f

bias f4 [6]
-0.0023524163 0.01232367 -0.016057726 -0.0005473432 0.05283872 -0.0796717
00000000: ff2a 1abb 38e9 493c 7e8b 83bc 957b 0fba
00000010: 6a6d 583d eb2a a3bd

mask f4 [6]
0.011154655 -0.011041019 -0.026295604 0.010528409 0.036967512 -0.010625744
00000000: 04c2 363c 64e5 34bc e169 d7bc 597f 2c3c
00000010: 3f6b 173d 9a17 2ebc

weight f4 [6]
1.0266609 0.99866986 0.9973493 1.0248705 1.0455817 1.0007855
00000000: a069 833f d4a8 7f3f 4952 7f3f f52e 833f
00000010: 9fd5 853f bd19 803f

bias f4 [6]
-0.026269253 -0.00087361684 -0.0036949439 -0.02364926 0.046899214 0.004642132
00000000: 9e32 d7bc 6f03 65ba df26 72bb 18bc c1bc
00000010: 6419 403d 071d 983b

weight f4 [6, 8]
-0.61002105 1.3729707 -0.012236054 0.85281104 0.071472324 -0.083662026 0.02594719 0.6243766
0.24980168 -0.09964576 -0.14170197 0.21044837 0.11610495 -0.029444078 -0.3123816 -0.3459319
0.007969822 -0.36458927 0.49838594 0.31774968 0.3168184 0.15795921 0.6720401 0.6941073
-0.43152717 0.6605274 -0.01690287 0.6779318 0.44659474 -0.0013398983 -0.5483451 0.800741
0.7194161 -0.8991882 0.5015916 0.33017004 0.653264 -0.024135971 -0.44207034 0.104398325
-0.13048229 -0.34782505 0.5162993 0.40059766 1.0912654 -0.27973506 0.83520633 -0.8906018
00000000: 572a 1cbf 81bd af3f bb79 48bc d351 5a3f
00000010: 1560 923d ff56 abbd 348f d43c 25d7 1f3f
00000020: 03cc 7f3e 1413 ccbd 521a 11be c77f 573e
00000030: 6fc8 ed3d b534 f1bc 7bf0 9fbe fc1d b1be
00000040: db93 023c 72ab babe 712c ff3e 16b0 a23e
00000050: 0536 a23e 0fc0 213e d20a 2c3f 04b1 313f
00000060: 21f1 dcbe 5318 293f e377 8abc f08c 2d3f
00000070: 11a8 e43e 879f afba 5860 0cbf 5dfd 4c3f
00000080: a72b 383f 3331 66bf 4f68 003f 0c0c a93e
00000090: 4f3c 273f cdb8 c5bc 0b57 e2be cace d53d
000000a0: 269d 05be 2016 b2be 312c 043f 231b cd3e
000000b0: 96ae 8b3f 6f39 8fbe 15d0 553f 7bfe 63bf

bias f4 [6]
-0.014136711 -0.014941109 -0.10646879 0.14409152 -0.09501061 0.07881251
00000000: aa9d 67bc 8ecb 74bc 4f0c dabd ba8c 133e
00000010: ec94 c2bd 7468 a13d

weight f4 [6, 6]
0.26026282 -0.25126436 -0.2909706 0.10813418 0.15789403 0.3695117 0.3697203 0.08990488
-0.028465563 0.10441405 -0.628012 0.59344983 0.14801325 0.74658084 0.2718472 0.538645
-0.7331505 0.88168514 0.42140096 -0.0515803 0.6489371 -0.19708367 1.3415115 -0.30116928
-0.58300513 -0.10442905 -0.6642405 0.67153025 -0.2937078 0.25170067 1.0028591 0.69422007
0.27198407 0.051427267 -0.116931826 0.22735412
00000000: 2b41 853e b9a5 80be 19fa 94be 7475 dd3d
00000010: f9ae 213e a330 bd3e fb4b bd3e 0d20 b83d
00000020: 9d30 e9bc 09d7 d53d 65c5 20bf 54ec 173f
00000030: c990 173e ec1f 3f3f 8e2f 8b3e a4e4 093f
00000040: c0af 3bbf 1eb6 613f dec1 d73e dd45 53bd
00000050: be20 263f 4dd0 49be a6b6 ab3f dc32 9abe
00000060: d33f 15bf e6de d5bd aa0b 2abf 68e9 2b3f
00000070: de60 96be e9de 803e b05d 803f 68b8 313f
00000080: 7f41 8b3e 66a5 523d f479 efbd 85cf 683e

bias f4 [6]
0.047400933 0.029613929 0.038549095 -0.12201438 0.053987514 -0.016390951
00000000: 7b27 423d e998 f23c a8e5 1d3d ade2 f9bd
00000010: 0322 5d3d 5146 86bc

weight f4 [12, 6]
-0.043296695 0.18042667 -0.42950532 -0.24676517 0.09240291 0.5168062 0.0467561 -0.41316628
-0.039766375 -0.40485626 0.5184909 -0.29461935 -0.22009541 0.1332239 0.2857635 -0.24385113
0.1109669 -0.6287222 0.17193192 -0.019391868 0.16892512 0.009596207 -0.4029503 -0.1085939
-0.45376557 -0.17383884 0.06409955 0.5143571 -0.28356993 -0.16014682 -0.37032527 -0.46964914
-0.26758924 0.57298446 -0.23721655 -0.50966346 0.49974382 0.5379517 0.21371855 -0.4187408
-0.023836823 -0.42323917 -0.4262321 -0.1593635 0.23530585 -0.41965687 -0.41098922 -0.031323675
0.48914814 0.43715072 -0.3127136 -0.35733065 -0.07671936 0.10859279 0.17119908 -0.30651796
0.24674821 0.4114506 -0.10403193 0.3086371 -0.39427173 -0.48661506 -0.19237499 -0.3784041
-0.08063476 -0.07508492 0.30583552 -0.30224532 0.20560303 -0.29739434 -0.0144944275 -0.02779904
00000000: e057 31bd c5c1 383e 1fe8 dbbe 02b0 7cbe
00000010: bd3d bd3d 694d 043f 5383 3f3d 888a d3be
00000020: 11e2 22bd 5249 cfbe d2bb 043f 59d8 96be
00000030: b160 61be d96b 083e 984f 923e 1cb4 79be
00000040: 9d42 e33d f0f3 20bf ec0e 303e b2db 9ebc
00000050: b5fa 2c3e 6939 1d3c 804f cebe 7b66 debd
00000060: f653 e8be cf02 32be a046 833d e8ac 033f
00000070: 1430 91be 87fd 23be 469b bdbe da75 f0be
00000080: 7501 89be 1caf 123f e5e8 72be 4e79 02bf
00000090: 6cde ff3e 34b7 093f 09d9 5a3e 3265 d6be
000000a0: 7145 c3bc ceb2 d8be 183b dabe 2f30 23be
000000b0: 04f4 703e 44dd d6be 2e6d d2be 414d 00bd
000000c0: a071 fa3e 38d2 df3e ff1b a0be 0bf4 b6be
000000d0: 0a1f 9dbd e665 de3d d04e 2f3e ecef 9cbe
000000e0: 90ab 7c3e a7a9 d23e b10e d5bd af05 9e3e
000000f0: fcdd c9be 9c25 f9be f3fd 44be 2fbe c1be
00000100: d623 a5bd 1fc6 99bd 7996 9c3e e6bf 9abe
00000110: 9a89 523e 1244 98be 097a 6dbc d0ba e3bc

bias f4 [12]
-0.05377408 0.011859725 -0.030401591 -0.021022132 0.041252997 -0.008238485 -0.029823022 -0.020799955
-0.017897615 -0.08457356 0.01310053 0.012579961
00000000: 3642 5cbd 4b4f 423c c20c f9bc 9b36 acbc
00000010: e7f8 283d b6fa 06bc 694f f4bc ab64 aabc
00000020: 059e 92bc e734 adbd 9ba3 563c 2e1c 4e3c

weight f4 [6]
1.0054461 0.99202675 1.0205189 0.9546943 1.0055465 1.023614
00000000: 75b2 803f 77f5 7d3f 5da0 823f d866 743f
00000010: bfb5 803f c905 833f

bias f4 [6]
-0.007454962 -0.00924006 0.018313598 0.0096826395 0.019595575 0.03431811
00000000: c148 f4bb 9f63 17bc 6606 963c efa3 1e3c
00000010: e686 a03c 2691 0c3d

mask f4 [6]
0.0758371 -0.028993241 -0.007970858 -0.103513986 -0.0309787 0.013242177
00000000: 7b50 9b3d 3c83 edbc 3498 02bc 24ff d3bd
00000010: 0bc7 fdbc b7f5 583c

weight f4 [6]
1.1016939 0.98724955 0.9507841 0.91584796 0.93492657 1.0262072
00000000: 4e04 8d3f 63bc 7c3f 9666 733f 0375 6a3f
00000010: 5957 6f3f c25a 833f

bias f4 [6]
-0.100002445 -0.00047399875 0.024327949 -0.030577218 0.06351201 0.043661546
00000000: 15ce ccbd 0983 f8b9 684b c73c 137d fabc
00000010: 9612 823d 73d6 323d

weight f4 [6, 8]
0.50363296 -0.6296431 0.19374648 0.22309144 -0.1161558 0.1361298 -0.48205435 0.12943193
-0.18263243 0.48459882 -0.3199824 0.47260675 -0.77571756 -0.51207894 -0.6875636 0.3996089
-0.077354394 0.3873519 -0.29763207 -0.29904985 -1.2088889 0.6622305 0.5103988 -0.42931026
0.8101678 -0.3234631 0.30953616 -0.0417226 0.7368329 -0.18687241 0.826821 0.10483542
-0.5240586 0.82281744 0.43772733 0.59891117 0.11913211 -0.16632925 0.38156524 0.5194626
-0.083805524 0.10870311 -0.43025282 0.67096776 -0.80059904 -0.4174677 0.283119 0.21734741
00000000: 17ee 003f 4a30 21bf 7a65 463e 1572 643e
00000010: 18e3 edbd 9c65 0b3e d4cf f6be ce89 043e
00000020: ff03 3bbe 561d f83e bcd4 a3be 83f9 f13e
00000030: 6d95 46bf 9b17 03bf 2b04 30bf 8a99 cc3e
00000040: fb6b 9ebd fd52 c63e 3b63 98be 101d 99be
00000050: dfbc 9abf f087 293f 7fa9 023f 8ece dbbe
00000060: 2867 4f3f f59c a5be 867b 9e3e 51e5 2abd
00000070: 15a1 3c3f 7b5b 3fbe 8baa 533f f4b3 d63d
00000080: b428 06bf 2aa4 523f cc1d e03e 3e52 193f
00000090: 89fb f33d 3752 2abe 855c c33e 80fb 043f
000000a0: 3ba2 abbd bc9f de3d 194a dcbe 8bc4 2b3f
000000b0: 0ff4 4cbf 54be d5be f9f4 903e 5290 5e3e

bias f4 [6]
0.03243614 0.14113446 0.047320664 -0.05450154 -0.0062693567 0.03172666
00000000: c2db 043d 8d85 103e 50d3 413d 023d 5fbd
00000010: 2d6f cdbb d0f3 013d

weight f4 [6, 6]
0.14096229 -0.6236726 0.4788752 -0.5852233 -1.1263025 0.36111328 -0.46269602 0.013777585
-0.0057671457 0.64369875 -0.23163132 0.9419766 1.1466618 0.88849485 -0.47736844 0.683936
0.19843997 0.8297638 0.7481069 -0.43011335 -0.2475028 -0.12146725 0.23177283 -0.4476309
-0.21146914 0.905401 0.70362383 -0.47578645 0.048878677 0.23425663 0.43480507 0.27937844
-0.4206798 -0.30141795 -0.5640932 -0.23587477
00000000: 6b58 103e 02a9 1fbf 212f f53e 32d1 15bf
00000010: ae2a 90bf d7e3 b83e 7ee6 ecbe 61bb 613c
00000020: 53fa bcbb 71c9 243f c330 6dbe 6125 713f
00000030: d0c5 923f 6674 633f a369 f4be 6e16 2f3f
00000040: d933 4b3e 676b 543f ef83 3f3f d137 dcbe
00000050: 6071 7dbe d2c3 f8bd db55 6d3e e12f e5be
00000060: 5e8b 58be 5cc8 673f b120 343f 489a f3be
00000070: 0235 483d f8e0 6f3e c59e de3e b10a 8f3e
00000080: 5863 d7be 7453 9abe 6968 10bf 2889 71be

bias f4 [6]
-0.020346515 -7.784762e-05 0.0049471883 0.022215173 0.09183398 0.05663024
00000000: bcad a6bc 1f42 a3b8 061c a23b 98fc b53c
00000010: 7413 bc3d 1cf5 673d

weight f4 [12, 6]
0.33961084 0.22720173 -0.29795268 -0.2374074 0.09199615 -0.37127468 0.17795473 0.09617134
-0.07234879 0.08076617 -0.21249577 -0.26044595 0.27323982 -0.10027069 0.1693898 -0.50771934
-0.43659976 -0.10147861 0.103716984 0.21050994 0.53649163 -0.617432 -0.4734283 0.124415986
0.20796295 0.20496514 0.00010037541 0.31540248 0.13721183 -0.2457904 0.25875622 -0.39430198
-0.07452404 0.16189308 -0.045202367 0.10585448 -0.42688245 -0.7015463 0.27003136 0.61962724
0.010614363 -0.08678475 -0.50526863 0.57871073 -0.5076885 0.2701028 0.089181416 0.30444118
0.24767907 0.33882704 0.7327025 -0.51513714 -0.028706405 -0.23806436 -0.028692154 -0.4430413
0.3622303 0.15172708 -0.3673029 0.026117556 -0.07935433 0.20926484 0.08421579 0.07040924
0.1468737 0.6087807 0.53800166 0.5384408 -0.09055809 0.41234046 0.45580712 -0.232068
00000000: 79e1 ad3e 92a7 683e 418d 98be ed1a 73be
00000010: 7a68 bc3d b717 bebe c439 363e 7bf5 c43d
00000020: 9a2b 94bd bc68 a53d 7e98 59be 2c59 85be
00000030: 17e6 8b3e b85a cdbd 8574 2d3e e5f9 01bf
00000040: 018a dfbe 04d4 cfbd 9269 d43d eb8f 573e
00000050: 8457 093f 0610 1ebf 3265 f2be cfcd fe3d
00000060: 3df4 543e 62e2 513e a380 d238 6f7c a13e
00000070: 4281 0c3e 7bb0 7bbe b27b 843e f3e1 c9be
00000080: 0fa0 98bd 4dc7 253e 1e26 39bd 3cca d83d
00000090: 5690 dabe 8a98 33bf 8d41 8a3e e49f 1e3f
000000a0: dde7 2d3c 34bc b1bd 4959 01bf 6326 143f
000000b0: e0f7 01bf ea4a 8a3e bfa4 b63d b7df 9b3e
000000c0: 959f 7d3e bd7a ad3e 6492 3b3f 07e0 03bf
000000d0: b229 ebbc 25c7 73be cf0b ebbc 4fd6 e2be
000000e0: 4076 b93e 585e 1b3e 200f bcbe 7cf4 d53c
000000f0: 8684 a2bd 8649 563e 5479 ac3d b832 903d
00000100: 0f66 163e 0dd9 1b3f 7aba 093f 42d7 093f
00000110: 8576 b9bd 4a1e d33e 8d5f e93e 3ca3 6dbe

bias f4 [12]
-0.100272454 0.0022569983 0.0017907083 -0.03895413 0.07187914 0.024508025 0.08460993 -0.035734374
-0.069452554 -0.124909915 -0.17032109 -0.041214846
00000000: a55b cdbd 26ea 133b 33b6 ea3a 5e8e 1fbd
00000010: 5f35 933d 0ec5 c83c f947 ad3d 355e 12bd
00000020: 243d 8ebd c5d0 ffbd a768 2ebe e6d0 28bd

weight f4 [6]
1.0579638 0.978821 0.90270114 0.90358436 0.7926251 0.9779719
00000000: 5c6b 873f 0394 7a3f 6c17 673f 4e51 673f
00000010: 7be9 4a3f 5e5c 7a3f

bias f4 [6]
-0.0602723 -0.012213071 0.026897447 -0.040924706 0.0631023 0.008070034
00000000: 16e0 76bd 5519 48bc 0958 dc3c aaa0 27bd
00000010: c73b 813d 2d38 043c

mask f4 [6]
0.12197134 -0.11027494 0.09651185 0.07040842 0.19671899 -0.0989484
00000000: 1ccc f93d d4d7 e1bd 01a8 c53d 4a32 903d
00000010: b470 493e 75a5 cabd

weight f4 [6]
1.0987345 0.9065312 1.0816174 1.0854161 1.1164036 0.9030761
00000000: 55a3 8c3f 6e12 683f 7072 8a3f eaee 8a3f
00000010: 50e6 8e3f ff2f 673f

bias f4 [6]
0.061551772 0.060013723 -0.06648051 0.05607265 -0.026630284 -0.10059561
00000000: b61d 7c3d f3d0 753d ef26 88bd 6fac 653d
00000010: c127 dabc 1205 cebd

weight f4 [6, 8]
0.8808518 -1.0198077 0.73644596 -0.13541876 0.0493128 -0.9879357 -1.0891733 -0.05930173
0.77221775 -0.09639142 -0.24175553 0.1217535 0.13417137 0.062470872 0.112130165 -0.20109971
-0.6716567 0.32029098 -0.02618314 -0.39396858 0.6039364 -0.4534978 0.39170733 -0.75492734
0.021517372 -0.35859138 0.1382198 -0.14207472 0.031744275 -0.9556111 -0.9193822 -0.37749934
-0.06768183 0.015705645 0.011006501 -0.14769785 -0.17204782 -0.49722537 0.56031406 0.10332613
0.37206805 -0.37747005 0.12823416 0.017502666 0.69405144 0.9082386 -0.116786666 0.00932955
00000000: 817f 613f 0f89 82bf b987 3c3f 37ab 0abe
00000010: 38fc 493d 5be9 7cbf 086a 8bbf 5fe6 72bd
00000020: 10b0 453f dd68 c5bd c38e 77be e659 f93d
00000030: 3864 093e 75e1 7f3d 80a4 e53d 15ed 4dbe
00000040: b2f1 2bbf 2efd a33e 067e d6bc 40b6 c9be
00000050: 939b 1a3f dd30 e8be dd8d c83e eb42 41bf
00000060: 3345 b03c 4a99 b7be 7e89 0d3e 097c 11be
00000070: 4906 023d eea2 74bf a25c 6bbf 9847 c1be
00000080: c59c 8abd 20a9 803c 9c54 343c 1b3e 17be
00000090: 4e2d 30be 5394 febe be70 0f3f a69c d33d
000000a0: b47f be3e c143 c1be d14f 033e c061 8f3c
000000b0: 5bad 313f 5382 683f d92d efbd f8da 183c

bias f4 [6]
0.03911012 -0.024267036 0.050544176 -0.0668409 -0.1069626 0.10770896
00000000: ef31 203d aacb c6bc 6907 4f3d e2e3 88bd
00000010: 350f dbbd 8496 dc3d

weight f4 [6, 6]
-0.13133655 1.0488807 0.5883729 0.24579372 -0.33850184 1.28997 -0.1307281 -0.17413226
0.84623086 -0.74592894 0.08593627 -1.1703964 0.65453666 0.19139442 -0.62980413 -0.63119096
0.09746344 1.0646386 0.48396206 -0.92474896 -0.24917817 -0.17996891 -1.051319 0.92925173
0.4922815 0.3182795 -0.7135897 -0.4976788 0.3538828 1.2898371 0.50420505 0.4517377
0.061937474 0.2866612 -0.5242838 -0.87827516
00000000: 177d 06be b941 863f 9b9f 163f 59b1 7b3e
00000010: 1d50 adbe bd1d a53f 96dd 05be ba4f 32be
00000020: 96a2 583f 33f5 3ebf 5bff af3d 8dcf 95bf
00000030: b78f 273f e6fc 433e d83a 21bf bb95 21bf
00000040: e99a c73d 1446 883f e0c9 f73e 59bc 6cbf
00000050: 9028 7fbe c549 38be 9f91 86bf 71e3 6d3f
00000060: 520c fc3e 88f5 a23e d1ad 36bf c1cf febe
00000070: 2030 b53e 6219 a53f 9513 013f 2a4a e73e
00000080: 26b2 7d3d 42c5 923e 7737 06bf a4d6 60bf

bias f4 [6]
0.04156398 0.014623264 0.0070683854 0.17250653 -0.001531104 0.03188198
00000000: fe3e 2a3d 6a96 6f3c ea9d e73b 8da5 303e
00000010: 53af c8ba ae96 023d

weight f4 [12, 6]
-0.43293908 -0.15372172 0.19345257 -0.014984338 -0.3588406 0.26623636 0.256305 -0.14858355
0.07245317 0.36263567 0.1713554 0.011939324 0.12753917 -0.07463199 -0.47792056 -0.40085477
0.41125187 0.27748224 0.53259945 0.2613682 0.0053142766 -0.19077386 0.57360196 0.6815757
-0.19415699 0.6311431 -0.40673482 -0.2712278 -0.44317877 -0.3141919 -0.08332648 0.11333433
0.6045245 -0.36988005 0.11170654 -0.05868273 -0.67941046 0.24880688 0.22781631 0.34242275
0.6322582 -0.48249123 0.0895238 -0.115121424 0.47258794 0.5254366 -0.11925701 -0.37216598
-0.013740766 0.5528618 0.34149137 -0.10377945 0.13289794 -0.2069063 -0.5098761 0.7170567
-0.46022305 -0.19644296 0.30527854 -0.27785394 0.06993696 -0.2616479 -0.41735312 -0.54460657
0.017494792 0.63547504 -0.55353785 -0.006541296 -0.4416219 -0.388081 -0.041059416 -0.33613908
00000000: 31aa ddbe 3a69 1dbe 6e18 463e de80 75bc
00000010: f5b9 b7be 2250 883e 693a 833e 4926 18be
00000020: 5462 943d 62ab b93e ca77 2f3e 289d 433c
00000030: a199 023e a8d8 98bd 01b2 f4be d63c cdbe
00000040: 9b8f d23e 2712 8e3e 7058 083f 0dd2 853e
00000050: 6223 ae3b 395a 43be 94d7 123f bf7b 2e3f
00000060: 17d1 46be 9892 213f 8c3f d0be 5fde 8abe
00000070: 54e8 e2be c3dd a0be 13a7 aabd d41b e83d
00000080: 1ec2 1a3f eb60 bdbe 66c6 e43d 4d5d 70bd
00000090: d8ed 2dbf 3bc7 7e3e ae48 693e 0952 af3e
000000a0: acdb 213f 1709 f7be 4158 b73d c8c4 ebbd
000000b0: 0cf7 f13e 0383 063f 053d f4bd 8a8c bebe
000000c0: f320 61bc 5a88 0d3f f5d7 ae3e 528a d4bd
000000d0: 6616 083e 3fdf 53be 3d87 02bf 0791 373f
000000e0: 5ba2 ebbe 5828 49be 784d 9c3e df42 8ebe
000000f0: 1c3b 8f3d b7f6 85be 4faf d5be 566b 0bbf
00000100: 3d51 8f3c 7eae 223f a8b4 0dbf 5e58 d6bb
00000110: 441c e2be 8eb2 c6be eb2d 28bd 6c1a acbe

bias f4 [12]
0.079967275 0.08915801 -0.0596709 0.058451 -0.030337725 -0.10248908 -0.045708966 0.1096251
-0.24307054 0.018846527 0.35976553 -0.02856349
00000000: e2c5 a33d 7a98 b63d 7969 74bd 516a 6f3d
00000010: d286 f8bc cbe5 d1bd 5339 3bbd 2083 e03d
00000020: 7ce7 78be 0864 9a3c 3033 b83e fbfd e9bc

weight f4 [6]
1.1312914 1.0174587 1.0380615 1.1182097 1.1597968 0.8722078
00000000: 28ce 903f 163c 823f 33df 843f 7f21 8f3f
00000010: 3974 943f 0349 5f3f

bias f4 [6]
0.06649742 -0.031656716 -0.089603044 0.071984395 -0.042040054 -0.1004408
00000000: cd2f 883d 79aa 01bd cd81 b7bd 8e6c 933d
00000010: 3132 2cbd e8b3 cdbd

mask f4 [6]
0.01579012 -0.08597566 0.017193865 -0.06488515 -0.13963883 0.16704156
00000000: 485a 813c 0214 b0bd 26da 8c3c 81e2 84bd
00000010: 7bfd 0ebe f10c 2b3e

weight f4 [6]
1.0416235 0.9097477 1.1112902 0.36483416 0.8057672 1.1453636
00000000: eb53 853f 3ae5 683f c23e 8e3f 8bcb ba3e
00000010: c246 4e3f 469b 923f

bias f4 [6]
0.052822236 -0.08905557 -0.03309993 0.054608498 0.035247356 -0.15274662
00000000: 215c 583d c462 b6bd cb93 07bd 29ad 5f3d
00000010: 885f 103d 9c69 1cbe

weight f4 [6, 8]
0.291057 0.97579944 -1.1167527 -0.6618295 -0.11704771 0.12455069 -0.016461875 0.17931294
0.28762487 -0.25219008 -0.11530475 0.8908512 1.0130258 -0.65254474 0.26852992 -0.34111026
-0.67165834 -0.105190545 0.5776156 -0.48546526 0.13792093 0.21670902 -0.35095412 0.16612373
0.1881272 0.30568248 -0.92411906 -0.8157676 0.18349208 0.40370736 0.49300474 -0.6664798
-0.09601449 -0.33251572 -0.4076813 0.2728406 0.416026 0.39400467 0.017213691 0.24432479
0.60909647 -0.30686554 -0.63756496 -0.0969787 0.12876661 -0.028882591 -0.32810998 0.071763046
00000000: 6c05 953e fecd 793f c1f1 8ebf a86d 29bf
00000010: b6b6 efbd 6f14 ff3d 0edb 86bc d09d 373e
00000020: 9143 933e 0f1f 81be e624 ecbd d30e 643f
00000030: d4aa 813f 2c0d 27bf c17c 893e 01a6 aebe
00000040: cdf1 2bbf 246e d7bd 9ede 133f e78e f8be
00000050: 253b 0d3e f8e8 5d3e 42b0 b3be 571c 2a3e
00000060: 6ba4 403e 6a82 9c3e 1193 6cbf 25d6 50bf
00000070: 59e5 3b3e bbb2 ce3e 1e6b fc3e 6c9e 2abf
00000080: 3fa3 c4bd 803f aabe 9abb d0be c3b1 8b3e
00000090: 5c01 d53e fbba c93e ba03 8d3c 4730 7a3e
000000a0: bfed 1b3f 7b1d 9dbe 7537 23bf c59c c6bd
000000b0: 65db 033e 2f9b ecbc 08fe a7be 81f8 923d

bias f4 [6]
0.009800534 -0.07477071 0.15534332 -0.011229338 -0.065434285 -0.06058845
00000000: 6b92 203c 6321 99bd 5212 1f3e 42fb 37bc
00000010: 6902 86bd 982b 78bd

weight f4 [6, 6]
-0.18118212 -0.5195897 -0.14925605 0.30653244 -0.7700829 0.45730183 -0.23894759 0.18498972
-0.12873048 0.6012292 -0.2853667 0.027140819 -0.84088993 -0.4363726 -0.11415627 0.040277913
-0.20935287 -1.255035 0.809018 -0.32279864 1.3365705 0.7127874 0.27591902 0.6219183
-0.7700957 0.8121483 -1.6804023 -0.6314098 1.5205259 -0.31941742 0.92739755 -0.16287152
-0.06450533 -0.8381105 -0.90337855 -0.46164528
00000000: ce87 39be d503 05bf 94d6 18be d2f1 9c3e
00000010: 2724 45bf 7723 ea3e adae 74be f26d 3d3e
00000020: ecd1 03be 28ea 193f 961b 92be 6c56 de3c
00000030: 9044 57bf 3b6c dfbe c3ca e9bd 74fa 243d
00000040: 9960 56be fda4 a0bf ce1b 4f3f dd45 a5be
00000050: be14 ab3f 3c79 363f 4245 8d3e 0a36 1f3f
00000060: fe24 45bf f3e8 4f3f 6c17 d7bf 13a4 21bf
00000070: 98a0 c23f ae8a a3be ed69 6d3f cbc7 26be
00000080: 5f1b 84bd 698e 56bf d143 67bf c55c ecbe

bias f4 [6]
0.016263673 -0.03776715 0.13501063 0.1662142 -0.14650552 0.024283815
00000000: 653b 853c bab1 1abd 3a40 0a3e 0e34 2a3e
00000010: 8b05 16be daee c63c

weight f4 [12, 6]
0.3023003 -0.079559475 0.3572747 0.5366741 0.39095342 -0.4392099 -0.5736422 0.607908
-0.44094956 0.36143044 -0.44443282 -0.11658578 0.106509596 -0.2109177 0.027976647 -0.55018234
0.18091306 0.23089842 0.25446174 -0.096827544 0.33398005 0.2036693 -0.358251 -0.3039764
-0.30932072 -0.47472152 0.25013486 0.4557736 -0.49175817 0.41172025 -0.62396663 0.47668502
-0.60600466 -0.809593 0.44055372 -0.7577719 -0.29246926 -0.20311789 -0.42458367 0.07108506
0.4002861 -0.53794533 0.30305624 0.51607263 -0.07158787 0.06276419 0.6506437 -0.2564935
0.35606292 0.1176154 -0.38425958 -0.59857535 -0.16084944 -0.050316814 -0.15817858 0.3402468
0.26786208 0.250189 0.36622357 0.24545012 -0.3010298 -0.120431215 0.40178394 0.13064502
0.50250465 -0.27643982 -0.26346874 -0.11553722 0.4980822 0.027573649 -0.07480363 0.5396234
00000000: 1bc7 9a3e 14f0 a2bd b6ec b63e 7963 093f
00000010: 0c2b c83e 1fe0 e0be 37da 12bf dc9f 1b3f
00000020: 24c4 e1be 690d b93e b38c e3be 87c4 eebd
00000030: b421 da3d cffa 57be 482f e53c c0d8 0cbf
00000040: 4641 393e a370 6c3e cf48 823e 854d c6bd
00000050: 6fff aa3e af8e 503e ad6c b7be cba2 9bbe
00000060: 495f 9ebe b30e f3be ad11 803e 285b e93e
00000070: bac7 fbbe ffcc d23e 47bc 1fbf 0f10 f43e
00000080: 1f23 1bbf 7d41 4fbf 4290 e13e 57fd 41bf
00000090: 88be 95be 23fe 4fbe 0863 d9be 0b95 913d
000000a0: 4df2 cc3e c9b6 09bf 302a 9b3e 561d 043f
000000b0: a99c 92bd 838a 803d 9690 263f 1e53 83be
000000c0: e14d b63e 58e0 f03d acbd c4be 3c3c 19bf
000000d0: b7b5 24be 0119 4ebd 91f9 21be d434 ae3e
000000e0: 3825 893e c618 803e a881 bb3e 4757 7b3e
000000f0: 9420 9abe a4a4 f6bd a0b6 cd3e cfc7 053e
00000100: 25a4 003f 8589 8dbe 60e5 86be c79e ecbd
00000110: a104 ff3e 22e2 e13c a532 99bd c224 0a3f

bias f4 [12]
0.04846916 -0.061384905 -0.033418495 0.055881865 0.03357521 -0.1684861 -0.08553775 -0.15052973
-0.07816173 0.010927082 -0.011243727 0.2074842
00000000: 9987 463d bd6e 7bbd d5e1 08bd 62e4 643d
00000010: 2986 093d 9f87 2cbe 6a2e afbd 7724 1abe
00000020: 4213 a0bd 8107 333c 9c37 38bc bd76 543e

weight f4 [6]
1.0005301 0.954717 1.1005827 0.8739535 0.7728968 1.1832687
00000000: 5f11 803f 5568 743f e5df 8c3f 6bbb 5f3f
00000010: 91dc 453f 5975 973f

bias f4 [6]
0.04851257 -0.04790271 -0.06291431 0.05586125 0.03171371 -0.18477516
00000000: 1eb5 463d a235 44bd 38d9 80bd c4ce 643d
00000010: 3ce6 013d b335 3dbe

mask f4 [6]
-0.05340364 -0.013589648 0.028376628 0.006114051 -0.013710293 -0.010640742
00000000: c6bd 5abd 1da7 5ebc 1a76 e83c 6158 c83b
00000010: 23a1 60bc 8256 2ebc

weight f4 [6]
0.93192637 0.98134965 1.0168383 1.0059183 0.98465854 0.9773326
00000000: ba92 6e3f bb39 7b3f c227 823f eec1 803f
00000010: 9512 7c3f 7832 7a3f

bias f4 [6]
-0.025204547 -0.029048411 0.016048916 -0.0006834999 0.014281099 0.036244627
00000000: c479 cebc eff6 edbc 0479 833c e72c 33ba
00000010: 45fb 693c 3f75 143d

weight f4 [6, 8]
-0.97520715 0.1571121 1.6251565 -0.20315292 -0.45899254 0.16313721 0.29511017 -0.63109446
1.7992197 -0.5600989 0.18183339 0.3726538 0.5798299 -0.26448667 -0.2633286 0.92376834
-0.48954773 -0.557805 0.102575116 -0.19124421 -0.1833204 0.4925977 -0.69673574 0.29648238
0.19054322 -0.2942142 -0.52784044 -0.051519684 -0.48803952 0.7896471 0.38517222 -0.35292265
-0.025955167 -0.05724413 0.40735927 0.8056173 -0.49338087 -0.4734197 0.6887156 -0.627448
-0.6490364 -0.37608355 -0.61478925 0.3217944 0.07613952 -0.66640013 0.48931557 -0.7824685
00000000: 2da7 79bf ffe1 203e 2105 d03f 5207 50be
00000010: 1201 ebbe 710d 273e ae18 973e 688f 21bf
00000020: d54c e63f a462 0fbf 8832 3a3e 7bcc be3e
00000030: bb6f 143f cc6a 87be 02d3 86be 157c 6c3f
00000040: 00a6 fabe 4fcc 0ebf e712 d23d 86d5 43be
00000050: 58b8 3bbe c435 fc3e 465d 32bf 8acc 973e
00000060: c31d 433e 3ea3 96be 8d20 07bf 4e06 53bd
00000070: 51e0 f9be 5026 4a3f 4b35 c53e 47b2 b4be
00000080: ee9f d4bc d278 6abd 6591 d03e ef3c 4e3f
00000090: 6b9c fcbe 1164 f2be aa4f 303f 6fa0 20bf
000000a0: 4027 26bf 068e c0be d462 1dbf 3cc2 a43e
000000b0: 09ef 9b3d 3399 2abf 9287 fa3e db4f 48bf

bias f4 [6]
-0.032944754 0.12525395 -0.03292393 0.0052576223 -0.0185506 -0.035569306
00000000: 14f1 06bd 9242 003e 3edb 06bd 2248 ac3b
00000010: 6ef7 97bc 1fb1 11bd

weight f4 [6, 6]
1.0360777 -0.62838584 0.81531507 0.19891852 0.66778266 -0.45393586 -0.6069528 -0.31977153
0.14193721 -1.0055594 0.67146385 -0.53907585 -0.5300766 -0.4857335 0.731246 0.35852164
-1.3175677 -0.153059 0.9470704 0.4303943 -0.122436546 0.103481986 0.67716926 0.16226108
0.37929314 -0.39459205 0.6954437 -0.67035306 -0.7400412 -0.36806437 -1.4511817 -0.045468207
-0.46582216 -0.29032055 0.6256527 -0.92368704
00000000: 329e 843f e5dd 20bf 7db8 503f 4cb1 4b3e
00000010: cef3 2a3f 486a e8be 4261 1bbf 18b9 a3be
00000020: fd57 113e 2cb6 80bf 0ee5 2b3f e000 0abf
00000030: 1ab3 07bf 10b2 f8be f032 3b3f 2690 b73e
00000040: 0fa6 a8bf 80bb 1cbe 3573 723f a45c dc3e
00000050: 03c0 fabd 5dee d33d f75a 2d3f c527 263e
00000060: b632 c23e f807 cabe 9908 323f 429c 2bbf
00000070: 5773 3dbf ef72 bcbe 52c0 b9bf df3c 3abd
00000080: 3e80 eebe e5a4 94be c62a 203f c176 6cbf

bias f4 [6]
-0.040418435 -0.031623047 -0.003372001 0.014178969 0.008697158 0.11826951
00000000: cd8d 25bd 2b87 01bd cafc 5cbb e84e 683c
00000010: 867e 0e3c 4937 f23d

weight f4 [12, 6]
0.1567772 0.25486162 -0.5151629 -0.35834515 0.06332961 -0.4922963 0.67787826 0.27177837
0.39700186 0.32200342 0.28210735 0.13487707 0.4439492 0.37807652 0.019225491 -0.34650397
-0.2723966 -0.22234666 0.19409941 0.21229754 -0.3670973 0.35523108 0.4134303 0.43142074
0.3647759 0.002344295 -0.22382657 0.34302363 0.34038302 0.3186606 -0.76648086 0.27620912
-0.021276385 0.23448996 -0.3138535 0.64408803 0.011565711 0.21890095 0.2314422 0.32101884
0.60861474 -0.023696866 0.116886154 -0.4400643 0.23648295 0.20226158 0.43308812 0.24022983
-0.32256415 -0.511784 -0.05863961 0.27595568 0.23575872 0.1344071 0.46854833 0.37305847
0.3380057 0.20147496 -0.5245273 0.14998779 0.10818573 0.54169077 -0.12512606 0.42809504
-0.5618035 -0.27279037 -0.045135394 0.15164645 -0.67452407 0.31058773 -0.42405653 0.7534008
00000000: 348a 203e 397d 823e b7e1 03bf 0479 b7be
00000010: f4b2 813d 430e fcbe 6e89 2d3f 8926 8b3e
00000020: d443 cb3e a2dd a43e 6070 903e 371d 0a3e
00000030: 4f4d e33e 3f93 c13e c77e 9d3c f868 b1be
00000040: 9177 8bbe d8ae 63be ffc1 463e 8764 593e
00000050: 2df4 bbbe d9e0 b53e 23ad d33e 2ee3 dc3e
00000060: e8c3 ba3e bea2 193b cb32 65be cba0 af3e
00000070: af46 ae3e 7b27 a33e 1738 44bf 486b 8d3e
00000080: d04b aebc 231e 703e 68b1 a0be f4e2 243f
00000090: 1c7e 3d3c 9227 603e 2fff 6c3e 955c a43e
000000a0: 2dce 1b3f ee1f c2bc 0262 ef3d 1c50 e1be
000000b0: 9628 723e a91d 4f3e babd dd3e cffe 753e
000000c0: 2127 a5be 4704 03bf 1630 70bd 104a 8d3e
000000d0: bc6a 713e 04a2 093e 91e5 ef3e 8501 bf3e
000000e0: 150f ad3e 744f 4e3e 6c47 06bf 6696 193e
000000f0: 7b90 dd3d 3fac 0a3f 0c21 00be 462f db3e
00000100: 5bd2 0fbf 2eab 8bbe e4df 38bd 3549 1b3e
00000110: 9cad 2cbf 5b05 9f3e f01d d9be e0de 403f

bias f4 [12]
-0.018145688 -0.033489406 0.0109036295 -0.002096509 0.021353493 0.036938127 -0.039760306 0.045673933
0.010743839 -0.03116476 0.08471204 0.1282021
00000000: 44a6 94bc 302c 09bd 23a5 323c 9665 09bb
00000010: 85ed ae3c 6f4c 173d b4db 22bd 9714 3b3d
00000020: ed06 303c 3d4d ffbc 827d ad3d 6947 033e

weight f4 [6]
0.94604474 0.97718656 1.0676528 1.0186226 0.9865124 1.0743482
00000000: fd2f 723f e628 7a3f d9a8 883f 3a62 823f
00000010: 148c 7c3f 3e84 893f

bias f4 [6]
-0.019784529 -0.0280734 0.0585806 -0.015684824 0.0076054367 0.06768434
00000000: 2a13 a2bc 30fa e5bc 36f2 6f3d 767d 80bc
00000010: 0737 f93b 169e 8a3d

weight f4 [8, 1]
-0.11891089 -0.63842624 -0.8461915 -0.7800096 0.6134333 0.8633114 0.18970513 0.96219337
00000000: 8d87 f3bd e76f 23bf 02a0 58bf b6ae 47bf
00000010: f709 1d3f fa01 5d3f 1042 423e 4e52 763f

bias f4 [8]
-0.38091457 0.7513495 0.8760528 -0.41964918 -0.09768579 -0.45940802 -0.07045488 0.39314768
00000000: 3c07 c3be 7158 403f ff44 603f 42dc d6be
00000010: 7d0f c8bd 8737 ebbe a64a 90bd a74a c93e

weight f4 [8, 1]
0.4355186 0.13942118 -0.22979274 0.4635838 -0.72677225 -0.9327895 -0.9928728 -0.20172797
00000000: 4bfc de3e 6dc4 0e3e ca4e 6bbe db5a ed3e
00000010: bf0d 3abf 4bcb 6ebf e92c 7ebf c791 4ebe

bias f4 [8]
-0.39665607 -0.8768152 -0.13777888 -0.39931226 -0.03599332 -0.16178049 -0.75532085 0.2055941
00000000: 8116 cbbe f676 60bf e815 0dbe a872 ccbe
00000010: bb6d 13bd c9a9 25be b55c 41bf 4287 523e

weight f4 [8, 1]
-0.5668377 -0.2089849 -0.3007887 0.050803613 -1.3472507 0.066224515 0.11543282 -0.524364
00000000: 471c 11bf 2300 56be fa00 9abe 7317 503d
00000010: b672 acbf b8a0 873d 0b68 ec3d b83c 06bf

bias f4 [8]
-0.6331813 -0.8272232 0.031407565 0.47426265 -0.84488446 -0.30343822 0.58184266 0.6003399
00000000: 2b18 22bf e6c4 53bf 38a5 003d 8ed2 f23e
00000010: 594a 58bf 415c 9bbe a4f3 143f e0af 193f

weight f4 [8, 1]
-0.41140556 0.39076594 -0.113587365 -0.0473735 0.14289337 0.7469395 -0.20616297 0.23556514
00000000: c0a3 d2be 7912 c83e 7ea0 e8bd b70a 42bd
00000010: a452 123e 6d37 3f3f 631c 53be fd37 713e

bias f4 [8]
-0.9724993 -0.020002834 0.34774753 -0.3419426 0.3849035 -0.7834339 0.36204374 0.7340175
00000000: b7f5 78bf fcdc a3bc f70b b23e 1a13 afbe
00000010: 1212 c53e 208f 48bf cc5d b93e 92e8 3b3f

weight f4 [8, 1]
-0.6602317 0.8704597 0.15930079 -0.17730235 0.102169946 -0.5269256 1.0587608 0.46125996
00000000: f204 29bf 72d6 5e3f bf1f 233e bf8e 35be
00000010: 7a3e d13d 99e4 06bf 7985 873f 442a ec3e

bias f4 [8]
0.14461786 -0.82459736 -0.7340425 -0.021742381 0.68844616 -0.3698671 -0.3284663 0.66670865
00000000: b416 143e d018 53bf 36ea 3bbf 141d b2bc
00000010: 023e 303f 385f bdbe bc2c a8be 6bad 2a3f

weight f4 [8, 1]
-0.25137356 -0.37764487 -0.25595337 0.7853894 -0.059835535 0.08805869 -0.42671525 -0.69959986
00000000: 09b4 80be ab5a c1be 520c 83be 480f 493f
00000010: 1b16 75bd 1d58 b43d 6c7a dabe fa18 33bf

bias f4 [8]
0.030796092 0.7802925 0.736806 -0.6412633 -0.36635736 0.9737192 -0.65157187 -0.38457105
00000000: 1648 fc3c 40c1 473f 519f 3c3f d529 24bf
00000010: 3193 bbbe a945 793f 6acd 26bf 7fe6 c4be

weight f4 [8, 1]
-0.26626354 0.29767802 0.89605767 -0.08003534 -0.18655118 -0.43923306 -1.0716279 -0.6226913
00000000: b253 88be 4169 983e 0964 653f 91e9 a3bd
00000010: 4607 3fbe 28e3 e0be 1a2b 89bf b268 1fbf

bias f4 [8]
0.10912245 0.6605333 -0.72491765 0.9271325 -0.27562883 -0.94196105 -0.3062794 -0.33674482
00000000: 977b df3d b618 293f 3494 39bf 8e58 6d3f
00000010: 391f 8dbe 5c24 71bf a7d0 9cbe d169 acbe

mask f4 [6]
-0.0682243 -0.061371196 -0.051721722 -0.00943286 0.067770064 0.005794523
00000000: 2fb9 8bbd 5d60 7bbd 28da 53bd 488c 1abc
00000010: 08cb 8a3d fbdf bd3b

weight f4 [6]
1.0065068 0.96210295 0.97563136 0.99349403 1.0945271 1.0295714
00000000: 37d5 803f 614c 763f fac2 793f a055 7e3f
00000010: 7719 8c3f ffc8 833f

bias f4 [6]
0.06865462 -0.036332797 -0.023508316 0.0010486797 -0.091510184 -0.029736202
00000000: cb9a 8c3d b3d1 14bd 8394 c0bc da73 893a
00000010: b169 bbbd 5699 f3bc
